# Annotation of those files:
The DFCAN.py is implementd using Pytorch.
The result would be:
---
>> Output shape: torch.Size([1, 1, 256, 256])
----------------------------------------------------------------
        Layer (type)               Output Shape         Param #
================================================================
            Conv2d-1         [-1, 64, 128, 128]           3,520
              GELU-2         [-1, 64, 128, 128]               0
            Conv2d-3         [-1, 64, 128, 128]          36,928
              GELU-4         [-1, 64, 128, 128]               0
            Conv2d-5         [-1, 64, 128, 128]          36,928
              GELU-6         [-1, 64, 128, 128]               0
            Conv2d-7         [-1, 64, 128, 128]          36,928
              ReLU-8         [-1, 64, 128, 128]               0
 AdaptiveAvgPool2d-9             [-1, 64, 1, 1]               0
           Conv2d-10              [-1, 4, 1, 1]             260
             ReLU-11              [-1, 4, 1, 1]               0
           Conv2d-12             [-1, 64, 1, 1]             320
          Sigmoid-13             [-1, 64, 1, 1]               0
             FCAB-14         [-1, 64, 128, 128]               0
           Conv2d-15         [-1, 64, 128, 128]          36,928
             GELU-16         [-1, 64, 128, 128]               0
           Conv2d-17         [-1, 64, 128, 128]          36,928
             GELU-18         [-1, 64, 128, 128]               0
           Conv2d-19         [-1, 64, 128, 128]          36,928
             ReLU-20         [-1, 64, 128, 128]               0
AdaptiveAvgPool2d-21             [-1, 64, 1, 1]               0
           Conv2d-22              [-1, 4, 1, 1]             260
             ReLU-23              [-1, 4, 1, 1]               0
           Conv2d-24             [-1, 64, 1, 1]             320
          Sigmoid-25             [-1, 64, 1, 1]               0
             FCAB-26         [-1, 64, 128, 128]               0
           Conv2d-27         [-1, 64, 128, 128]          36,928
             GELU-28         [-1, 64, 128, 128]               0
           Conv2d-29         [-1, 64, 128, 128]          36,928
             GELU-30         [-1, 64, 128, 128]               0
           Conv2d-31         [-1, 64, 128, 128]          36,928
             ReLU-32         [-1, 64, 128, 128]               0
AdaptiveAvgPool2d-33             [-1, 64, 1, 1]               0
           Conv2d-34              [-1, 4, 1, 1]             260
             ReLU-35              [-1, 4, 1, 1]               0
           Conv2d-36             [-1, 64, 1, 1]             320
          Sigmoid-37             [-1, 64, 1, 1]               0
             FCAB-38         [-1, 64, 128, 128]               0
           Conv2d-39         [-1, 64, 128, 128]          36,928
             GELU-40         [-1, 64, 128, 128]               0
           Conv2d-41         [-1, 64, 128, 128]          36,928
             GELU-42         [-1, 64, 128, 128]               0
           Conv2d-43         [-1, 64, 128, 128]          36,928
             ReLU-44         [-1, 64, 128, 128]               0
AdaptiveAvgPool2d-45             [-1, 64, 1, 1]               0
           Conv2d-46              [-1, 4, 1, 1]             260
             ReLU-47              [-1, 4, 1, 1]               0
           Conv2d-48             [-1, 64, 1, 1]             320
          Sigmoid-49             [-1, 64, 1, 1]               0
             FCAB-50         [-1, 64, 128, 128]               0
    ResidualGroup-51         [-1, 64, 128, 128]               0
           Conv2d-52         [-1, 64, 128, 128]          36,928
             GELU-53         [-1, 64, 128, 128]               0
           Conv2d-54         [-1, 64, 128, 128]          36,928
             GELU-55         [-1, 64, 128, 128]               0
           Conv2d-56         [-1, 64, 128, 128]          36,928
             ReLU-57         [-1, 64, 128, 128]               0
AdaptiveAvgPool2d-58             [-1, 64, 1, 1]               0
           Conv2d-59              [-1, 4, 1, 1]             260
             ReLU-60              [-1, 4, 1, 1]               0
           Conv2d-61             [-1, 64, 1, 1]             320
          Sigmoid-62             [-1, 64, 1, 1]               0
             FCAB-63         [-1, 64, 128, 128]               0
           Conv2d-64         [-1, 64, 128, 128]          36,928
             GELU-65         [-1, 64, 128, 128]               0
           Conv2d-66         [-1, 64, 128, 128]          36,928
             GELU-67         [-1, 64, 128, 128]               0
           Conv2d-68         [-1, 64, 128, 128]          36,928
             ReLU-69         [-1, 64, 128, 128]               0
AdaptiveAvgPool2d-70             [-1, 64, 1, 1]               0
           Conv2d-71              [-1, 4, 1, 1]             260
             ReLU-72              [-1, 4, 1, 1]               0
           Conv2d-73             [-1, 64, 1, 1]             320
          Sigmoid-74             [-1, 64, 1, 1]               0
             FCAB-75         [-1, 64, 128, 128]               0
           Conv2d-76         [-1, 64, 128, 128]          36,928
             GELU-77         [-1, 64, 128, 128]               0
           Conv2d-78         [-1, 64, 128, 128]          36,928
             GELU-79         [-1, 64, 128, 128]               0
           Conv2d-80         [-1, 64, 128, 128]          36,928
             ReLU-81         [-1, 64, 128, 128]               0
AdaptiveAvgPool2d-82             [-1, 64, 1, 1]               0
           Conv2d-83              [-1, 4, 1, 1]             260
             ReLU-84              [-1, 4, 1, 1]               0
           Conv2d-85             [-1, 64, 1, 1]             320
          Sigmoid-86             [-1, 64, 1, 1]               0
             FCAB-87         [-1, 64, 128, 128]               0
           Conv2d-88         [-1, 64, 128, 128]          36,928
             GELU-89         [-1, 64, 128, 128]               0
           Conv2d-90         [-1, 64, 128, 128]          36,928
             GELU-91         [-1, 64, 128, 128]               0
           Conv2d-92         [-1, 64, 128, 128]          36,928
             ReLU-93         [-1, 64, 128, 128]               0
AdaptiveAvgPool2d-94             [-1, 64, 1, 1]               0
           Conv2d-95              [-1, 4, 1, 1]             260
             ReLU-96              [-1, 4, 1, 1]               0
           Conv2d-97             [-1, 64, 1, 1]             320
          Sigmoid-98             [-1, 64, 1, 1]               0
             FCAB-99         [-1, 64, 128, 128]               0
   ResidualGroup-100         [-1, 64, 128, 128]               0
          Conv2d-101         [-1, 64, 128, 128]          36,928
            GELU-102         [-1, 64, 128, 128]               0
          Conv2d-103         [-1, 64, 128, 128]          36,928
            GELU-104         [-1, 64, 128, 128]               0
          Conv2d-105         [-1, 64, 128, 128]          36,928
            ReLU-106         [-1, 64, 128, 128]               0
AdaptiveAvgPool2d-107             [-1, 64, 1, 1]               0
          Conv2d-108              [-1, 4, 1, 1]             260
            ReLU-109              [-1, 4, 1, 1]               0
          Conv2d-110             [-1, 64, 1, 1]             320
         Sigmoid-111             [-1, 64, 1, 1]               0
            FCAB-112         [-1, 64, 128, 128]               0
          Conv2d-113         [-1, 64, 128, 128]          36,928
            GELU-114         [-1, 64, 128, 128]               0
          Conv2d-115         [-1, 64, 128, 128]          36,928
            GELU-116         [-1, 64, 128, 128]               0
          Conv2d-117         [-1, 64, 128, 128]          36,928
            ReLU-118         [-1, 64, 128, 128]               0
AdaptiveAvgPool2d-119             [-1, 64, 1, 1]               0
          Conv2d-120              [-1, 4, 1, 1]             260
            ReLU-121              [-1, 4, 1, 1]               0
          Conv2d-122             [-1, 64, 1, 1]             320
         Sigmoid-123             [-1, 64, 1, 1]               0
            FCAB-124         [-1, 64, 128, 128]               0
          Conv2d-125         [-1, 64, 128, 128]          36,928
            GELU-126         [-1, 64, 128, 128]               0
          Conv2d-127         [-1, 64, 128, 128]          36,928
            GELU-128         [-1, 64, 128, 128]               0
          Conv2d-129         [-1, 64, 128, 128]          36,928
            ReLU-130         [-1, 64, 128, 128]               0
AdaptiveAvgPool2d-131             [-1, 64, 1, 1]               0
          Conv2d-132              [-1, 4, 1, 1]             260
            ReLU-133              [-1, 4, 1, 1]               0
          Conv2d-134             [-1, 64, 1, 1]             320
         Sigmoid-135             [-1, 64, 1, 1]               0
            FCAB-136         [-1, 64, 128, 128]               0
          Conv2d-137         [-1, 64, 128, 128]          36,928
            GELU-138         [-1, 64, 128, 128]               0
          Conv2d-139         [-1, 64, 128, 128]          36,928
            GELU-140         [-1, 64, 128, 128]               0
          Conv2d-141         [-1, 64, 128, 128]          36,928
            ReLU-142         [-1, 64, 128, 128]               0
AdaptiveAvgPool2d-143             [-1, 64, 1, 1]               0
          Conv2d-144              [-1, 4, 1, 1]             260
            ReLU-145              [-1, 4, 1, 1]               0
          Conv2d-146             [-1, 64, 1, 1]             320
         Sigmoid-147             [-1, 64, 1, 1]               0
            FCAB-148         [-1, 64, 128, 128]               0
   ResidualGroup-149         [-1, 64, 128, 128]               0
          Conv2d-150         [-1, 64, 128, 128]          36,928
            GELU-151         [-1, 64, 128, 128]               0
          Conv2d-152         [-1, 64, 128, 128]          36,928
            GELU-153         [-1, 64, 128, 128]               0
          Conv2d-154         [-1, 64, 128, 128]          36,928
            ReLU-155         [-1, 64, 128, 128]               0
AdaptiveAvgPool2d-156             [-1, 64, 1, 1]               0
          Conv2d-157              [-1, 4, 1, 1]             260
            ReLU-158              [-1, 4, 1, 1]               0
          Conv2d-159             [-1, 64, 1, 1]             320
         Sigmoid-160             [-1, 64, 1, 1]               0
            FCAB-161         [-1, 64, 128, 128]               0
          Conv2d-162         [-1, 64, 128, 128]          36,928
            GELU-163         [-1, 64, 128, 128]               0
          Conv2d-164         [-1, 64, 128, 128]          36,928
            GELU-165         [-1, 64, 128, 128]               0
          Conv2d-166         [-1, 64, 128, 128]          36,928
            ReLU-167         [-1, 64, 128, 128]               0
AdaptiveAvgPool2d-168             [-1, 64, 1, 1]               0
          Conv2d-169              [-1, 4, 1, 1]             260
            ReLU-170              [-1, 4, 1, 1]               0
          Conv2d-171             [-1, 64, 1, 1]             320
         Sigmoid-172             [-1, 64, 1, 1]               0
            FCAB-173         [-1, 64, 128, 128]               0
          Conv2d-174         [-1, 64, 128, 128]          36,928
            GELU-175         [-1, 64, 128, 128]               0
          Conv2d-176         [-1, 64, 128, 128]          36,928
            GELU-177         [-1, 64, 128, 128]               0
          Conv2d-178         [-1, 64, 128, 128]          36,928
            ReLU-179         [-1, 64, 128, 128]               0
AdaptiveAvgPool2d-180             [-1, 64, 1, 1]               0
          Conv2d-181              [-1, 4, 1, 1]             260
            ReLU-182              [-1, 4, 1, 1]               0
          Conv2d-183             [-1, 64, 1, 1]             320
         Sigmoid-184             [-1, 64, 1, 1]               0
            FCAB-185         [-1, 64, 128, 128]               0
          Conv2d-186         [-1, 64, 128, 128]          36,928
            GELU-187         [-1, 64, 128, 128]               0
          Conv2d-188         [-1, 64, 128, 128]          36,928
            GELU-189         [-1, 64, 128, 128]               0
          Conv2d-190         [-1, 64, 128, 128]          36,928
            ReLU-191         [-1, 64, 128, 128]               0
AdaptiveAvgPool2d-192             [-1, 64, 1, 1]               0
          Conv2d-193              [-1, 4, 1, 1]             260
            ReLU-194              [-1, 4, 1, 1]               0
          Conv2d-195             [-1, 64, 1, 1]             320
         Sigmoid-196             [-1, 64, 1, 1]               0
            FCAB-197         [-1, 64, 128, 128]               0
   ResidualGroup-198         [-1, 64, 128, 128]               0
          Conv2d-199        [-1, 256, 128, 128]         147,712
            GELU-200        [-1, 256, 128, 128]               0
    PixelShuffle-201         [-1, 64, 256, 256]               0
          Conv2d-202          [-1, 1, 256, 256]             577
         Sigmoid-203          [-1, 1, 256, 256]               0
================================================================
Total params: 1,933,633
Trainable params: 1,933,633
Non-trainable params: 0
----------------------------------------------------------------
Input size (MB): 0.38
Forward/backward pass size (MB): 1041.02
Params size (MB): 7.38
Estimated Total Size (MB): 1048.78
----------------------------------------------------------------

Process finished with exit code 0
